…
1057/1057 [==============================] - 63s 60ms/step - loss: 0.0386 - acc: 0.9997 - val_loss: 0.1605 - val_acc: 0.9646
Epoch 22/300
1056/1057 [============================>.] - ETA: 0s - loss: 0.0385 - acc: 0.9996
Epoch 00022: ReduceLROnPlateau reducing learning rate to 1e-08.
1057/1057 [==============================] - 60s 57ms/step - loss: 0.0385 - acc: 0.9996 - val_loss: 0.1610 - val_acc: 0.9644
Epoch 00022: early stopping



_________________________________________________________________
Layer (type)                 Output Shape              Param #
=================================================================
block1_conv1 (Conv2D)        (None, 30, 30, 64)        640
_________________________________________________________________
batch_normalization (BatchNo (None, 30, 30, 64)        256
_________________________________________________________________
activation (Activation)      (None, 30, 30, 64)        0
_________________________________________________________________
block1_conv2 (Conv2D)        (None, 28, 28, 64)        36928
_________________________________________________________________
batch_normalization_1 (Batch (None, 28, 28, 64)        256
_________________________________________________________________
activation_1 (Activation)    (None, 28, 28, 64)        0
_________________________________________________________________
max_pooling2d (MaxPooling2D) (None, 14, 14, 64)        0
_________________________________________________________________
block2_conv1 (Conv2D)        (None, 12, 12, 128)       73856
_________________________________________________________________
batch_normalization_2 (Batch (None, 12, 12, 128)       512
_________________________________________________________________
activation_2 (Activation)    (None, 12, 12, 128)       0
_________________________________________________________________
block2_conv2 (Conv2D)        (None, 10, 10, 128)       147584
_________________________________________________________________
batch_normalization_3 (Batch (None, 10, 10, 128)       512
_________________________________________________________________
activation_3 (Activation)    (None, 10, 10, 128)       0
_________________________________________________________________
max_pooling2d_1 (MaxPooling2 (None, 5, 5, 128)         0
_________________________________________________________________
flatten (Flatten)            (None, 3200)              0
_________________________________________________________________
fc1 (Dense)                  (None, 356)               1139556
_________________________________________________________________
batch_normalization_4 (Batch (None, 356)               1424
_________________________________________________________________
activation_4 (Activation)    (None, 356)               0
_________________________________________________________________
dropout (Dropout)            (None, 356)               0
_________________________________________________________________
fc2 (Dense)                  (None, 356)               127092
_________________________________________________________________
batch_normalization_5 (Batch (None, 356)               1424
_________________________________________________________________
activation_5 (Activation)    (None, 356)               0
_________________________________________________________________
dropout_1 (Dropout)          (None, 356)               0
_________________________________________________________________
fc3 (Dense)                  (None, 43)                15351
=================================================================
Total params: 1,545,391
Trainable params: 1,543,199
Non-trainable params: 2,192
_________________________________________________________________



Saved model weights to disk
Training history saved
